packages/desktop/models/vgg16.onnx (onnx, 55494 bytes, 2 tensors)

0.0.bias f4 [64]
0	0x3ece88df	0.403388
1	0x3ec16e3f	0.37779424
2	0x3eedc0cd	0.46436158
3	0xbea54148	-0.32276368
4	0x3ec9b48e	0.39395565
5	0xbeca67d8	-0.39532351
6	0x3eca4a29	0.39509705
7	0xbf0cb08f	-0.5495691
8	0x3e89dfed	0.26928654
9	0xbf429dbc	-0.76021934
10	0xbeb3995d	-0.35077944
11	0x3e6f09e1	0.23343612
12	0xbfa97708	-1.323945
13	0xbe2d6a40	-0.16935062
14	0x3ec99ee1	0.39379027
15	0xbdd21326	-0.102575585
16	0x3d3c8d01	0.04603291
17	0xbf33128e	-0.6995019
18	0x3e1eaab2	0.15494803
19	0x3f101425	0.5628074
20	0x3e9a2ecb	0.30113825
21	0x3eaf6003	0.3425294
22	0x3ddbd162	0.10733296
23	0x3eee1b68	0.46505284
24	0x3e0495c1	0.12947752
25	0x3da16fee	0.07882677
26	0xbd497d57	-0.0491918
27	0xbf105385	-0.5637744
28	0x3e160695	0.14650948
29	0xbec7316a	-0.38904887
30	0xbd9256d6	-0.07145469
31	0x3d84df9b	0.06487962
32	0x3e8dbc0c	0.2768253
33	0x3ea7e8b9	0.3279474
34	0x3f1177fa	0.56823695
35	0xbfa1cb7b	-1.2640222
36	0xbf563911	-0.83680826
37	0xbf72d0db	-0.9484994
38	0x3e0b079b	0.1357712
39	0x3e8b9c20	0.2726755
40	0x3e3c7f24	0.18407875
41	0xbf085499	-0.53254086
42	0x3eb3947d	0.35074225
43	0xbda955c3	-0.08268311
44	0xbf832d81	-1.0248262
45	0xbf30f06e	-0.69116867
46	0xbf45673c	-0.7711065
47	0x3e85bf86	0.26122683
48	0x3ece8121	0.40332893
49	0xbef5db1d	-0.48018733
50	0xbe9cf641	-0.30656627
51	0x3f14ab78	0.5807414
52	0xbfaa90f5	-1.3325487
53	0x3ef8014f	0.48438498
54	0xbf50e710	-0.81602573
55	0x3e745067	0.23858796
56	0x3e6b806c	0.22998208
57	0x3efeec6a	0.49789745
58	0x3f0e2899	0.555307
59	0x3f05e4f3	0.52302474
60	0xbe5f640e	-0.21815512
61	0x3c3fb66d	0.011701209
62	0xbf0d35de	-0.5516032
63	0x3e57e485	0.21083267

0.2.bias f4 [64]
0	0x3b04c825	0.0020260897
1	0xbdb8d170	-0.09024322
2	0x3f1dcb0c	0.6163795
3	0xbda76d62	-0.0817516
4	0x3e7ae66f	0.24501966
5	0xbd47af10	-0.048750937
6	0x3e05d3b4	0.1306904
7	0xbced9c9f	-0.029005347
8	0xbe125ad8	-0.14292467
9	0x3e9d13db	0.3067921
10	0xbd238cf9	-0.039929364
11	0xbe813c5f	-0.25241372
12	0x3dcc8e29	0.099880524
13	0xbe6e26da	-0.23257008
14	0x3d1095f7	0.035299268
15	0xbdb91d97	-0.09038847
16	0x3de927af	0.11384522
17	0xbcfb1f65	-0.030654619
18	0xbc3134dd	-0.010815826
19	0xbcb04ac5	-0.021520028
20	0x3d62fe7e	0.055418484
21	0x3e0d8569	0.13820423
22	0x3d1426d0	0.036169827
23	0xbee6f402	-0.45108038
24	0x3bb800fd	0.005615352
25	0xbcc97870	-0.024593562
26	0xbedbf845	-0.42962852
27	0xbe154eab	-0.1458079
28	0x3ec33dd7	0.38133118
29	0xbd12fa22	-0.035883076
30	0x3df28975	0.11842624
31	0xbeb4992b	-0.35273108
32	0xbcc388ce	-0.023868944
33	0xbcc02179	-0.023453461
34	0x3f2662cf	0.6499452
35	0xbd81e7c4	-0.06343034
36	0xbc791bb6	-0.015204361
37	0xbe69f345	-0.22846706
38	0x3dc0a204	0.09405902
39	0xbf015c71	-0.5053168
40	0x3e433908	0.19064724
41	0x3dc16c68	0.09444505
42	0x3eae675e	0.34063238
43	0xbdaa84b0	-0.083260894
44	0x3e450980	0.19241905
45	0xbe47f730	-0.19527888
46	0xbd2c5439	-0.04207251
47	0xbe247dad	-0.16063567
48	0x3ecaf608	0.39640832
49	0x3e53bd51	0.20677687
50	0x3e398aa1	0.18119289
51	0xbdf54572	-0.11976136
52	0xbd944d1e	-0.072412714
53	0xbdfde11a	-0.1239645
54	0x3e06785e	0.13131854
55	0x3dd5af48	0.10433823
56	0x3f0c04d1	0.5469485
57	0x3f05532e	0.5208005
58	0x3d5079dd	0.050897468
59	0xbf53e777	-0.8277506
60	0x3edfd2fd	0.4371566
61	0xbebf335d	-0.37343875
62	0xbea71ee2	-0.3264075
63	0xbdf86f5c	-0.12130615
